RLSNet(
  (model): my_resnet(
    (conv1): Conv2d(3, 64, kernel_size=(7, 7), stride=(2, 2), padding=(3, 3), bias=False)
    (bn1): BatchNorm2d(64, eps=1e-05, momentum=0.1, affine=True, track_running_stats=True)
    (relu): ReLU(inplace=True)
    (maxpool): MaxPool2d(kernel_size=3, stride=2, padding=1, dilation=1, ceil_mode=False)
    (layer1): Sequential(
      (0): Bottleneck(
        (conv1): Conv2d(64, 64, kernel_size=(1, 1), stride=(1, 1), bias=False)
        (bn1): BatchNorm2d(64, eps=1e-05, momentum=0.1, affine=True, track_running_stats=True)
        (conv2): Conv2d(64, 64, kernel_size=(3, 3), stride=(1, 1), padding=(1, 1), bias=False)
        (bn2): BatchNorm2d(64, eps=1e-05, momentum=0.1, affine=True, track_running_stats=True)
        (conv3): Conv2d(64, 256, kernel_size=(1, 1), stride=(1, 1), bias=False)
        (bn3): BatchNorm2d(256, eps=1e-05, momentum=0.1, affine=True, track_running_stats=True)
        (relu): ReLU(inplace=True)
        (downsample): Sequential(
          (0): Conv2d(64, 256, kernel_size=(1, 1), stride=(1, 1), bias=False)
          (1): BatchNorm2d(256, eps=1e-05, momentum=0.1, affine=True, track_running_stats=True)
        )
      )
      (1): Bottleneck(
        (conv1): Conv2d(256, 64, kernel_size=(1, 1), stride=(1, 1), bias=False)
        (bn1): BatchNorm2d(64, eps=1e-05, momentum=0.1, affine=True, track_running_stats=True)
        (conv2): Conv2d(64, 64, kernel_size=(3, 3), stride=(1, 1), padding=(1, 1), bias=False)
        (bn2): BatchNorm2d(64, eps=1e-05, momentum=0.1, affine=True, track_running_stats=True)
        (conv3): Conv2d(64, 256, kernel_size=(1, 1), stride=(1, 1), bias=False)
        (bn3): BatchNorm2d(256, eps=1e-05, momentum=0.1, affine=True, track_running_stats=True)
        (relu): ReLU(inplace=True)
      )
      (2): Bottleneck(
        (conv1): Conv2d(256, 64, kernel_size=(1, 1), stride=(1, 1), bias=False)
        (bn1): BatchNorm2d(64, eps=1e-05, momentum=0.1, affine=True, track_running_stats=True)
        (conv2): Conv2d(64, 64, kernel_size=(3, 3), stride=(1, 1), padding=(1, 1), bias=False)
        (bn2): BatchNorm2d(64, eps=1e-05, momentum=0.1, affine=True, track_running_stats=True)
        (conv3): Conv2d(64, 256, kernel_size=(1, 1), stride=(1, 1), bias=False)
        (bn3): BatchNorm2d(256, eps=1e-05, momentum=0.1, affine=True, track_running_stats=True)
        (relu): ReLU(inplace=True)
      )
      (3): PSA_p(
        (conv_q_right): Conv2d(256, 1, kernel_size=(1, 1), stride=(1, 1), bias=False)
        (conv_v_right): Conv2d(256, 128, kernel_size=(1, 1), stride=(1, 1), bias=False)
        (conv_up): Conv2d(128, 256, kernel_size=(1, 1), stride=(1, 1), bias=False)
        (softmax_right): Softmax(dim=2)
        (sigmoid): Sigmoid()
        (conv_q_left): Conv2d(256, 128, kernel_size=(1, 1), stride=(1, 1), bias=False)
        (avg_pool): AdaptiveAvgPool2d(output_size=1)
        (conv_v_left): Conv2d(256, 128, kernel_size=(1, 1), stride=(1, 1), bias=False)
        (softmax_left): Softmax(dim=2)
      )
    )
    (layer2): Sequential(
      (0): Bottleneck(
        (conv1): Conv2d(256, 128, kernel_size=(1, 1), stride=(1, 1), bias=False)
        (bn1): BatchNorm2d(128, eps=1e-05, momentum=0.1, affine=True, track_running_stats=True)
        (conv2): Conv2d(128, 128, kernel_size=(3, 3), stride=(2, 2), padding=(1, 1), bias=False)
        (bn2): BatchNorm2d(128, eps=1e-05, momentum=0.1, affine=True, track_running_stats=True)
        (conv3): Conv2d(128, 512, kernel_size=(1, 1), stride=(1, 1), bias=False)
        (bn3): BatchNorm2d(512, eps=1e-05, momentum=0.1, affine=True, track_running_stats=True)
        (relu): ReLU(inplace=True)
        (downsample): Sequential(
          (0): Conv2d(256, 512, kernel_size=(1, 1), stride=(2, 2), bias=False)
          (1): BatchNorm2d(512, eps=1e-05, momentum=0.1, affine=True, track_running_stats=True)
        )
      )
      (1): Bottleneck(
        (conv1): Conv2d(512, 128, kernel_size=(1, 1), stride=(1, 1), bias=False)
        (bn1): BatchNorm2d(128, eps=1e-05, momentum=0.1, affine=True, track_running_stats=True)
        (conv2): Conv2d(128, 128, kernel_size=(3, 3), stride=(1, 1), padding=(1, 1), bias=False)
        (bn2): BatchNorm2d(128, eps=1e-05, momentum=0.1, affine=True, track_running_stats=True)
        (conv3): Conv2d(128, 512, kernel_size=(1, 1), stride=(1, 1), bias=False)
        (bn3): BatchNorm2d(512, eps=1e-05, momentum=0.1, affine=True, track_running_stats=True)
        (relu): ReLU(inplace=True)
      )
      (2): Bottleneck(
        (conv1): Conv2d(512, 128, kernel_size=(1, 1), stride=(1, 1), bias=False)
        (bn1): BatchNorm2d(128, eps=1e-05, momentum=0.1, affine=True, track_running_stats=True)
        (conv2): Conv2d(128, 128, kernel_size=(3, 3), stride=(1, 1), padding=(1, 1), bias=False)
        (bn2): BatchNorm2d(128, eps=1e-05, momentum=0.1, affine=True, track_running_stats=True)
        (conv3): Conv2d(128, 512, kernel_size=(1, 1), stride=(1, 1), bias=False)
        (bn3): BatchNorm2d(512, eps=1e-05, momentum=0.1, affine=True, track_running_stats=True)
        (relu): ReLU(inplace=True)
      )
      (3): Bottleneck(
        (conv1): Conv2d(512, 128, kernel_size=(1, 1), stride=(1, 1), bias=False)
        (bn1): BatchNorm2d(128, eps=1e-05, momentum=0.1, affine=True, track_running_stats=True)
        (conv2): Conv2d(128, 128, kernel_size=(3, 3), stride=(1, 1), padding=(1, 1), bias=False)
        (bn2): BatchNorm2d(128, eps=1e-05, momentum=0.1, affine=True, track_running_stats=True)
        (conv3): Conv2d(128, 512, kernel_size=(1, 1), stride=(1, 1), bias=False)
        (bn3): BatchNorm2d(512, eps=1e-05, momentum=0.1, affine=True, track_running_stats=True)
        (relu): ReLU(inplace=True)
      )
      (4): PSA_p(
        (conv_q_right): Conv2d(512, 1, kernel_size=(1, 1), stride=(1, 1), bias=False)
        (conv_v_right): Conv2d(512, 256, kernel_size=(1, 1), stride=(1, 1), bias=False)
        (conv_up): Conv2d(256, 512, kernel_size=(1, 1), stride=(1, 1), bias=False)
        (softmax_right): Softmax(dim=2)
        (sigmoid): Sigmoid()
        (conv_q_left): Conv2d(512, 256, kernel_size=(1, 1), stride=(1, 1), bias=False)
        (avg_pool): AdaptiveAvgPool2d(output_size=1)
        (conv_v_left): Conv2d(512, 256, kernel_size=(1, 1), stride=(1, 1), bias=False)
        (softmax_left): Softmax(dim=2)
      )
    )
    (layer3): Sequential(
      (0): Bottleneck(
        (conv1): Conv2d(512, 256, kernel_size=(1, 1), stride=(1, 1), bias=False)
        (bn1): BatchNorm2d(256, eps=1e-05, momentum=0.1, affine=True, track_running_stats=True)
        (conv2): Conv2d(256, 256, kernel_size=(3, 3), stride=(2, 2), padding=(1, 1), bias=False)
        (bn2): BatchNorm2d(256, eps=1e-05, momentum=0.1, affine=True, track_running_stats=True)
        (conv3): Conv2d(256, 1024, kernel_size=(1, 1), stride=(1, 1), bias=False)
        (bn3): BatchNorm2d(1024, eps=1e-05, momentum=0.1, affine=True, track_running_stats=True)
        (relu): ReLU(inplace=True)
        (downsample): Sequential(
          (0): Conv2d(512, 1024, kernel_size=(1, 1), stride=(2, 2), bias=False)
          (1): BatchNorm2d(1024, eps=1e-05, momentum=0.1, affine=True, track_running_stats=True)
        )
      )
      (1): Bottleneck(
        (conv1): Conv2d(1024, 256, kernel_size=(1, 1), stride=(1, 1), bias=False)
        (bn1): BatchNorm2d(256, eps=1e-05, momentum=0.1, affine=True, track_running_stats=True)
        (conv2): Conv2d(256, 256, kernel_size=(3, 3), stride=(1, 1), padding=(1, 1), bias=False)
        (bn2): BatchNorm2d(256, eps=1e-05, momentum=0.1, affine=True, track_running_stats=True)
        (conv3): Conv2d(256, 1024, kernel_size=(1, 1), stride=(1, 1), bias=False)
        (bn3): BatchNorm2d(1024, eps=1e-05, momentum=0.1, affine=True, track_running_stats=True)
        (relu): ReLU(inplace=True)
      )
      (2): Bottleneck(
        (conv1): Conv2d(1024, 256, kernel_size=(1, 1), stride=(1, 1), bias=False)
        (bn1): BatchNorm2d(256, eps=1e-05, momentum=0.1, affine=True, track_running_stats=True)
        (conv2): Conv2d(256, 256, kernel_size=(3, 3), stride=(1, 1), padding=(1, 1), bias=False)
        (bn2): BatchNorm2d(256, eps=1e-05, momentum=0.1, affine=True, track_running_stats=True)
        (conv3): Conv2d(256, 1024, kernel_size=(1, 1), stride=(1, 1), bias=False)
        (bn3): BatchNorm2d(1024, eps=1e-05, momentum=0.1, affine=True, track_running_stats=True)
        (relu): ReLU(inplace=True)
      )
      (3): Bottleneck(
        (conv1): Conv2d(1024, 256, kernel_size=(1, 1), stride=(1, 1), bias=False)
        (bn1): BatchNorm2d(256, eps=1e-05, momentum=0.1, affine=True, track_running_stats=True)
        (conv2): Conv2d(256, 256, kernel_size=(3, 3), stride=(1, 1), padding=(1, 1), bias=False)
        (bn2): BatchNorm2d(256, eps=1e-05, momentum=0.1, affine=True, track_running_stats=True)
        (conv3): Conv2d(256, 1024, kernel_size=(1, 1), stride=(1, 1), bias=False)
        (bn3): BatchNorm2d(1024, eps=1e-05, momentum=0.1, affine=True, track_running_stats=True)
        (relu): ReLU(inplace=True)
      )
      (4): Bottleneck(
        (conv1): Conv2d(1024, 256, kernel_size=(1, 1), stride=(1, 1), bias=False)
        (bn1): BatchNorm2d(256, eps=1e-05, momentum=0.1, affine=True, track_running_stats=True)
        (conv2): Conv2d(256, 256, kernel_size=(3, 3), stride=(1, 1), padding=(1, 1), bias=False)
        (bn2): BatchNorm2d(256, eps=1e-05, momentum=0.1, affine=True, track_running_stats=True)
        (conv3): Conv2d(256, 1024, kernel_size=(1, 1), stride=(1, 1), bias=False)
        (bn3): BatchNorm2d(1024, eps=1e-05, momentum=0.1, affine=True, track_running_stats=True)
        (relu): ReLU(inplace=True)
      )
      (5): Bottleneck(
        (conv1): Conv2d(1024, 256, kernel_size=(1, 1), stride=(1, 1), bias=False)
        (bn1): BatchNorm2d(256, eps=1e-05, momentum=0.1, affine=True, track_running_stats=True)
        (conv2): Conv2d(256, 256, kernel_size=(3, 3), stride=(1, 1), padding=(1, 1), bias=False)
        (bn2): BatchNorm2d(256, eps=1e-05, momentum=0.1, affine=True, track_running_stats=True)
        (conv3): Conv2d(256, 1024, kernel_size=(1, 1), stride=(1, 1), bias=False)
        (bn3): BatchNorm2d(1024, eps=1e-05, momentum=0.1, affine=True, track_running_stats=True)
        (relu): ReLU(inplace=True)
      )
      (6): PSA_p(
        (conv_q_right): Conv2d(1024, 1, kernel_size=(1, 1), stride=(1, 1), bias=False)
        (conv_v_right): Conv2d(1024, 512, kernel_size=(1, 1), stride=(1, 1), bias=False)
        (conv_up): Conv2d(512, 1024, kernel_size=(1, 1), stride=(1, 1), bias=False)
        (softmax_right): Softmax(dim=2)
        (sigmoid): Sigmoid()
        (conv_q_left): Conv2d(1024, 512, kernel_size=(1, 1), stride=(1, 1), bias=False)
        (avg_pool): AdaptiveAvgPool2d(output_size=1)
        (conv_v_left): Conv2d(1024, 512, kernel_size=(1, 1), stride=(1, 1), bias=False)
        (softmax_left): Softmax(dim=2)
      )
    )
    (layer4): Sequential(
      (0): Bottleneck(
        (conv1): Conv2d(1024, 512, kernel_size=(1, 1), stride=(1, 1), bias=False)
        (bn1): BatchNorm2d(512, eps=1e-05, momentum=0.1, affine=True, track_running_stats=True)
        (conv2): Conv2d(512, 512, kernel_size=(3, 3), stride=(2, 2), padding=(1, 1), bias=False)
        (bn2): BatchNorm2d(512, eps=1e-05, momentum=0.1, affine=True, track_running_stats=True)
        (conv3): Conv2d(512, 2048, kernel_size=(1, 1), stride=(1, 1), bias=False)
        (bn3): BatchNorm2d(2048, eps=1e-05, momentum=0.1, affine=True, track_running_stats=True)
        (relu): ReLU(inplace=True)
        (downsample): Sequential(
          (0): Conv2d(1024, 2048, kernel_size=(1, 1), stride=(2, 2), bias=False)
          (1): BatchNorm2d(2048, eps=1e-05, momentum=0.1, affine=True, track_running_stats=True)
        )
      )
      (1): Bottleneck(
        (conv1): Conv2d(2048, 512, kernel_size=(1, 1), stride=(1, 1), bias=False)
        (bn1): BatchNorm2d(512, eps=1e-05, momentum=0.1, affine=True, track_running_stats=True)
        (conv2): Conv2d(512, 512, kernel_size=(3, 3), stride=(1, 1), padding=(1, 1), bias=False)
        (bn2): BatchNorm2d(512, eps=1e-05, momentum=0.1, affine=True, track_running_stats=True)
        (conv3): Conv2d(512, 2048, kernel_size=(1, 1), stride=(1, 1), bias=False)
        (bn3): BatchNorm2d(2048, eps=1e-05, momentum=0.1, affine=True, track_running_stats=True)
        (relu): ReLU(inplace=True)
      )
      (2): Bottleneck(
        (conv1): Conv2d(2048, 512, kernel_size=(1, 1), stride=(1, 1), bias=False)
        (bn1): BatchNorm2d(512, eps=1e-05, momentum=0.1, affine=True, track_running_stats=True)
        (conv2): Conv2d(512, 512, kernel_size=(3, 3), stride=(1, 1), padding=(1, 1), bias=False)
        (bn2): BatchNorm2d(512, eps=1e-05, momentum=0.1, affine=True, track_running_stats=True)
        (conv3): Conv2d(512, 2048, kernel_size=(1, 1), stride=(1, 1), bias=False)
        (bn3): BatchNorm2d(2048, eps=1e-05, momentum=0.1, affine=True, track_running_stats=True)
        (relu): ReLU(inplace=True)
      )
      (3): PSA_p(
        (conv_q_right): Conv2d(2048, 1, kernel_size=(1, 1), stride=(1, 1), bias=False)
        (conv_v_right): Conv2d(2048, 1024, kernel_size=(1, 1), stride=(1, 1), bias=False)
        (conv_up): Conv2d(1024, 2048, kernel_size=(1, 1), stride=(1, 1), bias=False)
        (softmax_right): Softmax(dim=2)
        (sigmoid): Sigmoid()
        (conv_q_left): Conv2d(2048, 1024, kernel_size=(1, 1), stride=(1, 1), bias=False)
        (avg_pool): AdaptiveAvgPool2d(output_size=1)
        (conv_v_left): Conv2d(2048, 1024, kernel_size=(1, 1), stride=(1, 1), bias=False)
        (softmax_left): Softmax(dim=2)
      )
    )
  )
  (seg_up4): conv_bn_relu(
    (conv): Conv2d(2048, 512, kernel_size=(1, 1), stride=(1, 1), bias=False)
    (bn): BatchNorm2d(512, eps=1e-05, momentum=0.1, affine=True, track_running_stats=True)
    (relu): ReLU()
  )
  (seg_up3): conv_bn_relu(
    (conv): Conv2d(1024, 256, kernel_size=(1, 1), stride=(1, 1), bias=False)
    (bn): BatchNorm2d(256, eps=1e-05, momentum=0.1, affine=True, track_running_stats=True)
    (relu): ReLU()
  )
  (seg_up2): conv_bn_relu(
    (conv): Conv2d(512, 128, kernel_size=(1, 1), stride=(1, 1), bias=False)
    (bn): BatchNorm2d(128, eps=1e-05, momentum=0.1, affine=True, track_running_stats=True)
    (relu): ReLU()
  )
  (seg_up1): conv_bn_relu(
    (conv): Conv2d(256, 64, kernel_size=(1, 1), stride=(1, 1), bias=False)
    (bn): BatchNorm2d(64, eps=1e-05, momentum=0.1, affine=True, track_running_stats=True)
    (relu): ReLU()
  )
  (seg_px3): conv_bn_relu(
    (conv): Conv2d(1024, 512, kernel_size=(1, 1), stride=(1, 1), bias=False)
    (bn): BatchNorm2d(512, eps=1e-05, momentum=0.1, affine=True, track_running_stats=True)
    (relu): ReLU()
  )
  (seg_px2): conv_bn_relu(
    (conv): Conv2d(512, 256, kernel_size=(1, 1), stride=(1, 1), bias=False)
    (bn): BatchNorm2d(256, eps=1e-05, momentum=0.1, affine=True, track_running_stats=True)
    (relu): ReLU()
  )
  (seg_px1): conv_bn_relu(
    (conv): Conv2d(256, 128, kernel_size=(1, 1), stride=(1, 1), bias=False)
    (bn): BatchNorm2d(128, eps=1e-05, momentum=0.1, affine=True, track_running_stats=True)
    (relu): ReLU()
  )
  (FAM34): FeatureAggregationModule(
    (convblock): conv_bn_relu(
      (conv): Conv2d(256, 64, kernel_size=(1, 1), stride=(1, 1), bias=False)
      (bn): BatchNorm2d(64, eps=1e-05, momentum=0.1, affine=True, track_running_stats=True)
      (relu): ReLU()
    )
    (conv1): Conv2d(64, 64, kernel_size=(1, 1), stride=(1, 1))
    (relu): ReLU()
    (conv2): Conv2d(64, 64, kernel_size=(1, 1), stride=(1, 1))
    (sigmoid): Sigmoid()
    (bn): BatchNorm2d(64, eps=1e-05, momentum=0.1, affine=True, track_running_stats=True)
    (avgpool): AdaptiveAvgPool2d(output_size=(1, 1))
    (maxpool): AdaptiveMaxPool2d(output_size=(1, 1))
  )
  (FAM23): FeatureAggregationModule(
    (convblock): conv_bn_relu(
      (conv): Conv2d(128, 32, kernel_size=(1, 1), stride=(1, 1), bias=False)
      (bn): BatchNorm2d(32, eps=1e-05, momentum=0.1, affine=True, track_running_stats=True)
      (relu): ReLU()
    )
    (conv1): Conv2d(32, 32, kernel_size=(1, 1), stride=(1, 1))
    (relu): ReLU()
    (conv2): Conv2d(32, 32, kernel_size=(1, 1), stride=(1, 1))
    (sigmoid): Sigmoid()
    (bn): BatchNorm2d(32, eps=1e-05, momentum=0.1, affine=True, track_running_stats=True)
    (avgpool): AdaptiveAvgPool2d(output_size=(1, 1))
    (maxpool): AdaptiveMaxPool2d(output_size=(1, 1))
  )
  (FAM12): FeatureAggregationModule(
    (convblock): conv_bn_relu(
      (conv): Conv2d(64, 16, kernel_size=(1, 1), stride=(1, 1), bias=False)
      (bn): BatchNorm2d(16, eps=1e-05, momentum=0.1, affine=True, track_running_stats=True)
      (relu): ReLU()
    )
    (conv1): Conv2d(16, 16, kernel_size=(1, 1), stride=(1, 1))
    (relu): ReLU()
    (conv2): Conv2d(16, 16, kernel_size=(1, 1), stride=(1, 1))
    (sigmoid): Sigmoid()
    (bn): BatchNorm2d(16, eps=1e-05, momentum=0.1, affine=True, track_running_stats=True)
    (avgpool): AdaptiveAvgPool2d(output_size=(1, 1))
    (maxpool): AdaptiveMaxPool2d(output_size=(1, 1))
  )
  (combine_drivable): Sequential(
    (0): conv_bn_relu(
      (conv): Conv2d(64, 128, kernel_size=(3, 3), stride=(1, 1), padding=(2, 2), dilation=(2, 2), bias=False)
      (bn): BatchNorm2d(128, eps=1e-05, momentum=0.1, affine=True, track_running_stats=True)
      (relu): ReLU()
    )
    (1): conv_bn_relu(
      (conv): Conv2d(128, 128, kernel_size=(3, 3), stride=(1, 1), padding=(2, 2), dilation=(2, 2), bias=False)
      (bn): BatchNorm2d(128, eps=1e-05, momentum=0.1, affine=True, track_running_stats=True)
      (relu): ReLU()
    )
    (2): conv_bn_relu(
      (conv): Conv2d(128, 128, kernel_size=(3, 3), stride=(1, 1), padding=(4, 4), dilation=(4, 4), bias=False)
      (bn): BatchNorm2d(128, eps=1e-05, momentum=0.1, affine=True, track_running_stats=True)
      (relu): ReLU()
    )
    (3): Conv2d(128, 3, kernel_size=(1, 1), stride=(1, 1))
  )
  (combine_lane): Sequential(
    (0): conv_bn_relu(
      (conv): Conv2d(128, 128, kernel_size=(3, 3), stride=(1, 1), padding=(2, 2), dilation=(2, 2), bias=False)
      (bn): BatchNorm2d(128, eps=1e-05, momentum=0.1, affine=True, track_running_stats=True)
      (relu): ReLU()
    )
    (1): conv_bn_relu(
      (conv): Conv2d(128, 128, kernel_size=(3, 3), stride=(1, 1), padding=(2, 2), dilation=(2, 2), bias=False)
      (bn): BatchNorm2d(128, eps=1e-05, momentum=0.1, affine=True, track_running_stats=True)
      (relu): ReLU()
    )
    (2): conv_bn_relu(
      (conv): Conv2d(128, 128, kernel_size=(3, 3), stride=(1, 1), padding=(4, 4), dilation=(4, 4), bias=False)
      (bn): BatchNorm2d(128, eps=1e-05, momentum=0.1, affine=True, track_running_stats=True)
      (relu): ReLU()
    )
  )
  (lane_conv): Conv2d(128, 10, kernel_size=(1, 1), stride=(1, 1))
  (lane_decoder): BUSD(
    (layers): ModuleList(
      (0): UpsamplerBlock(
        (conv): ConvTranspose2d(128, 64, kernel_size=(3, 3), stride=(2, 2), padding=(1, 1), output_padding=(1, 1))
        (bn): BatchNorm2d(64, eps=0.001, momentum=0.1, affine=True, track_running_stats=True)
        (follows): ModuleList(
          (0): non_bottleneck_1d(
            (conv3x1_1): Conv2d(64, 64, kernel_size=(3, 1), stride=(1, 1), padding=(1, 0))
            (conv1x3_1): Conv2d(64, 64, kernel_size=(1, 3), stride=(1, 1), padding=(0, 1))
            (bn1): BatchNorm2d(64, eps=0.001, momentum=0.1, affine=True, track_running_stats=True)
            (conv3x1_2): Conv2d(64, 64, kernel_size=(3, 1), stride=(1, 1), padding=(1, 0))
            (conv1x3_2): Conv2d(64, 64, kernel_size=(1, 3), stride=(1, 1), padding=(0, 1))
            (bn2): BatchNorm2d(64, eps=0.001, momentum=0.1, affine=True, track_running_stats=True)
            (dropout): Dropout2d(p=0, inplace=False)
          )
          (1): non_bottleneck_1d(
            (conv3x1_1): Conv2d(64, 64, kernel_size=(3, 1), stride=(1, 1), padding=(1, 0))
            (conv1x3_1): Conv2d(64, 64, kernel_size=(1, 3), stride=(1, 1), padding=(0, 1))
            (bn1): BatchNorm2d(64, eps=0.001, momentum=0.1, affine=True, track_running_stats=True)
            (conv3x1_2): Conv2d(64, 64, kernel_size=(3, 1), stride=(1, 1), padding=(1, 0))
            (conv1x3_2): Conv2d(64, 64, kernel_size=(1, 3), stride=(1, 1), padding=(0, 1))
            (bn2): BatchNorm2d(64, eps=0.001, momentum=0.1, affine=True, track_running_stats=True)
            (dropout): Dropout2d(p=0, inplace=False)
          )
        )
        (interpolate_conv): Conv2d(128, 64, kernel_size=(1, 1), stride=(1, 1), bias=False)
        (interpolate_bn): BatchNorm2d(64, eps=0.001, momentum=0.1, affine=True, track_running_stats=True)
      )
      (1): UpsamplerBlock(
        (conv): ConvTranspose2d(64, 32, kernel_size=(3, 3), stride=(2, 2), padding=(1, 1), output_padding=(1, 1))
        (bn): BatchNorm2d(32, eps=0.001, momentum=0.1, affine=True, track_running_stats=True)
        (follows): ModuleList(
          (0): non_bottleneck_1d(
            (conv3x1_1): Conv2d(32, 32, kernel_size=(3, 1), stride=(1, 1), padding=(1, 0))
            (conv1x3_1): Conv2d(32, 32, kernel_size=(1, 3), stride=(1, 1), padding=(0, 1))
            (bn1): BatchNorm2d(32, eps=0.001, momentum=0.1, affine=True, track_running_stats=True)
            (conv3x1_2): Conv2d(32, 32, kernel_size=(3, 1), stride=(1, 1), padding=(1, 0))
            (conv1x3_2): Conv2d(32, 32, kernel_size=(1, 3), stride=(1, 1), padding=(0, 1))
            (bn2): BatchNorm2d(32, eps=0.001, momentum=0.1, affine=True, track_running_stats=True)
            (dropout): Dropout2d(p=0, inplace=False)
          )
          (1): non_bottleneck_1d(
            (conv3x1_1): Conv2d(32, 32, kernel_size=(3, 1), stride=(1, 1), padding=(1, 0))
            (conv1x3_1): Conv2d(32, 32, kernel_size=(1, 3), stride=(1, 1), padding=(0, 1))
            (bn1): BatchNorm2d(32, eps=0.001, momentum=0.1, affine=True, track_running_stats=True)
            (conv3x1_2): Conv2d(32, 32, kernel_size=(3, 1), stride=(1, 1), padding=(1, 0))
            (conv1x3_2): Conv2d(32, 32, kernel_size=(1, 3), stride=(1, 1), padding=(0, 1))
            (bn2): BatchNorm2d(32, eps=0.001, momentum=0.1, affine=True, track_running_stats=True)
            (dropout): Dropout2d(p=0, inplace=False)
          )
        )
        (interpolate_conv): Conv2d(64, 32, kernel_size=(1, 1), stride=(1, 1), bias=False)
        (interpolate_bn): BatchNorm2d(32, eps=0.001, momentum=0.1, affine=True, track_running_stats=True)
      )
      (2): UpsamplerBlock(
        (conv): ConvTranspose2d(32, 16, kernel_size=(3, 3), stride=(2, 2), padding=(1, 1), output_padding=(1, 1))
        (bn): BatchNorm2d(16, eps=0.001, momentum=0.1, affine=True, track_running_stats=True)
        (follows): ModuleList(
          (0): non_bottleneck_1d(
            (conv3x1_1): Conv2d(16, 16, kernel_size=(3, 1), stride=(1, 1), padding=(1, 0))
            (conv1x3_1): Conv2d(16, 16, kernel_size=(1, 3), stride=(1, 1), padding=(0, 1))
            (bn1): BatchNorm2d(16, eps=0.001, momentum=0.1, affine=True, track_running_stats=True)
            (conv3x1_2): Conv2d(16, 16, kernel_size=(3, 1), stride=(1, 1), padding=(1, 0))
            (conv1x3_2): Conv2d(16, 16, kernel_size=(1, 3), stride=(1, 1), padding=(0, 1))
            (bn2): BatchNorm2d(16, eps=0.001, momentum=0.1, affine=True, track_running_stats=True)
            (dropout): Dropout2d(p=0, inplace=False)
          )
          (1): non_bottleneck_1d(
            (conv3x1_1): Conv2d(16, 16, kernel_size=(3, 1), stride=(1, 1), padding=(1, 0))
            (conv1x3_1): Conv2d(16, 16, kernel_size=(1, 3), stride=(1, 1), padding=(0, 1))
            (bn1): BatchNorm2d(16, eps=0.001, momentum=0.1, affine=True, track_running_stats=True)
            (conv3x1_2): Conv2d(16, 16, kernel_size=(3, 1), stride=(1, 1), padding=(1, 0))
            (conv1x3_2): Conv2d(16, 16, kernel_size=(1, 3), stride=(1, 1), padding=(0, 1))
            (bn2): BatchNorm2d(16, eps=0.001, momentum=0.1, affine=True, track_running_stats=True)
            (dropout): Dropout2d(p=0, inplace=False)
          )
        )
        (interpolate_conv): Conv2d(32, 16, kernel_size=(1, 1), stride=(1, 1), bias=False)
        (interpolate_bn): BatchNorm2d(16, eps=0.001, momentum=0.1, affine=True, track_running_stats=True)
      )
    )
    (output_conv): Conv2d(16, 10, kernel_size=(1, 1), stride=(1, 1), bias=False)
  )
  (avgpool): AdaptiveAvgPool2d(output_size=(1, 1))
  (fc): Linear(in_features=2048, out_features=4, bias=True)
  (road_layers): Sequential(
    (0): Conv2d(2048, 256, kernel_size=(3, 3), stride=(2, 2), padding=(2, 2))
    (1): MaxPool2d(kernel_size=2, stride=2, padding=0, dilation=1, ceil_mode=False)
    (2): BatchNorm2d(256, eps=0.001, momentum=0.1, affine=True, track_running_stats=True)
    (3): non_bottleneck_1d(
      (conv3x1_1): Conv2d(256, 256, kernel_size=(3, 1), stride=(1, 1), padding=(1, 0))
      (conv1x3_1): Conv2d(256, 256, kernel_size=(1, 3), stride=(1, 1), padding=(0, 1))
      (bn1): BatchNorm2d(256, eps=0.001, momentum=0.1, affine=True, track_running_stats=True)
      (conv3x1_2): Conv2d(256, 256, kernel_size=(3, 1), stride=(1, 1), padding=(1, 0))
      (conv1x3_2): Conv2d(256, 256, kernel_size=(1, 3), stride=(1, 1), padding=(0, 1))
      (bn2): BatchNorm2d(256, eps=0.001, momentum=0.1, affine=True, track_running_stats=True)
      (dropout): Dropout2d(p=0.3, inplace=False)
    )
  )
  (linear_1): Linear(in_features=3840, out_features=1024, bias=True)
  (linear_2): Linear(in_features=1024, out_features=4, bias=True)
)